model/model.pth (torch, 17216 bytes, 4 tensors)

linear1.weight f4 [256, 11]
000000 4c 39 73 3e 52 5f b5 be 89 56 2d be ce 30 76 bd
       0.23752326 -0.35424286 -0.16927542 -0.060105138
000010 27 0b e4 3d 61 80 e8 bd 05 0d b1 bd 11 03 58 be
       0.1113494 -0.11352611 -0.086450614 -0.2109492
000020 4b 07 3c 3d 70 4c fb bd dc 33 50 3e 73 dc 9a 3e
       0.045905393 -0.12270439 0.20332283 0.30246314
000030 52 15 81 bd 67 a9 88 3e 0f 92 57 bc 12 98 9d 3e
       -0.06302895 0.26691744 -0.013157382 0.30780083
000040 a6 7a 4f be b6 e1 9f 3e d3 29 4c be 9d 46 22 3e
       -0.2026163 0.3122689 -0.1993783 0.1584725
000050 e9 7b ee bd fe b5 51 be 5d 0e 9a 3e 80 c1 1d be
       -0.11644728 -0.20479581 0.30089083 -0.15405846
000060 34 42 95 bc cb 1b 4f 3c e4 f4 4e bd 46 62 f3 3d
       -0.018220045 0.012640904 -0.050526515 0.118839785
000070 1d 3c f5 3d 93 78 41 3d b6 91 2c bd 4d 91 7f 3e
       0.11974356 0.04723413 -0.04213115 0.24957772
000080 87 d3 e6 bc 81 75 57 3e 31 88 97 be 72 ba 94 3e
       -0.028177036 0.21040918 -0.29596093 0.29048496
000090 b8 88 99 3e 15 80 1b be 98 14 0b 3e 46 f2 9a be
       0.2998712 -0.15185578 0.13582075 -0.30262965
0000a0 3c ce b0 3e 53 f8 86 3e db 99 27 3e 76 fc d2 bd
       0.34532344 0.2636133 0.16367285 -0.10302059
0000b0 75 e8 8d be 40 62 1f bd 50 3c 81 3c f0 86 a2 bc
       -0.27716413 -0.038912058 0.01577583 -0.019839734
0000c0 80 49 de 3c 30 cb 6d be 95 3f 60 3e 36 e1 43 3d
       0.027134657 -0.23222041 0.21899255 0.0478222
0000d0 f5 c5 83 be 52 6e 08 be 8d 68 87 be b8 04 4e 3d
       -0.25736967 -0.13323334 -0.26446953 0.05029747
0000e0 47 9c 1a 3e 61 c0 39 be ce f9 00 3e 68 0e 81 3e
       0.15098678 -0.18139793 0.12595293 0.25206304
0000f0 d7 1c fe bd 60 9c 28 be 3f 77 1e bc 13 69 4d be
       -0.124078445 -0.16465902 -0.009671985 -0.20059614
000100 d5 14 6c be 01 d1 9c be 8f 2c 0e be e9 3a 10 bd
       -0.23054822 -0.30628207 -0.13884185 -0.03521243
000110 6e 62 f3 3d 22 43 55 3d ed 5b 87 bd e6 5a 62 be
       0.11884008 0.052065976 -0.0660933 -0.22104988
000120 16 15 36 3e 29 aa 2c 3e e6 9f 83 3e 74 10 4c 3c
       0.17781481 0.16861786 0.2570793 0.012455095
000130 72 e8 28 3d da 0e 6f be a6 47 4d be e8 45 d3 bb
       0.041237302 -0.23345509 -0.20046863 -0.0064475425
000140 a3 6f 39 3e 69 57 45 3e 5d 52 f9 3d 53 55 1e 3e
       0.18108992 0.19271626 0.12173913 0.15462236
000150 73 ba 9f 3e b3 56 1a bb be 2f e6 3d fc a1 88 bd
       0.31196937 -0.0023550212 0.11239575 -0.06671521
000160 41 2b 60 3e 21 23 7f bd e5 c7 e0 3d d3 1a 62 3e
       0.218915 -0.06228936 0.10975627 0.22080545
000170 ba 4d 0d 3c bf ac 80 3e fe 1c a9 3e 62 67 fb 3d
       0.0086244885 0.25131795 0.33029932 0.12275578
000180 fd e3 a8 3e 65 c2 ea bd 3c ca 7a be 47 1b 48 be
       0.3298644 -0.11462859 -0.24491209 -0.19541655
000190 0f ee 71 be 40 ac a9 3c 9e a0 d3 bd d2 c9 84 be
       -0.23625968 0.020712018 -0.1033337 -0.25935227
0001a0 28 3b 4a bd a2 da 2c be 18 7c 6f be 8c 4d 72 bd
       -0.049372822 -0.16880277 -0.23387182 -0.059155986
0001b0 2e ca 8e bd c9 67 21 be be fe ed bd e9 40 0f be
       -0.069721565 -0.15762247 -0.11620854 -0.13989605
0001c0 71 ea 6e 3e 96 f4 18 3d 37 94 71 be 5d 08 55 be
       0.2333162 0.03734263 -0.23591696 -0.20803972
0001d0 4a 06 86 3e 3f ca 92 be b5 9a 8a 3d 07 d5 4d 3e
       0.26176673 -0.28669927 0.06767789 0.20100795
0001e0 57 e9 4a 3e df 4c 40 be dc 78 4a be d4 f8 03 be
       0.19815575 -0.18779324 -0.19772667 -0.12887889
0001f0 9c 86 64 3d 80 82 93 bd 1a 54 ad 3c 59 4f 92 3b
       0.055792436 -0.07202625 0.021158267 0.0044650254
000200 f9 db ce 3d 6f 79 95 3e 81 ad 29 3e b6 6a 7c 3e
       0.1010055 0.2919421 0.16570093 0.24650082
000210 5a b4 7f be e0 ce 8e 3d c0 57 80 be 89 0e 6b 3e
       -0.24971142 0.06973052 -0.25066948 0.22954763
000220 78 5f 86 bc b6 57 90 be 38 0e db bc 04 07 4c 3e
       -0.016402945 -0.28191918 -0.026740178 0.19924551
000230 c2 08 3e 3d e2 ba 64 3e 8f f2 d6 3d bc 5c 3d be
       0.04639507 0.22336915 0.10495483 -0.18492407
000240 64 61 9d 3d 49 75 7d 3e 45 6c 6f 3e 67 9d ab 3d
       0.076845914 0.24751772 0.23381145 0.083796315
000250 30 1f 2c 3d d8 dd 83 bd 1b b9 4c be cc 46 85 3d
       0.04202193 -0.06438798 -0.19992487 0.06507644
000260 ad dd 3c 3d ee 5d 9d 3e fb 45 2d 3e f2 48 ae 3d
       0.046109844 0.30735725 0.16921227 0.08510007
000270 82 30 ac bd e6 a7 1c 3e c0 27 c0 3d 74 20 90 be
       -0.0840769 0.15298423 0.09382582 -0.2814976
000280 5b 6d 80 3e 58 55 d9 bd 59 2f 2a be 68 00 d8 bd
       0.25083432 -0.10611981 -0.16619624 -0.105469525
000290 ba 16 f7 bd ed 9c a3 3d 72 e6 d2 3d 45 34 e8 bd
       -0.120648816 0.079889156 0.1029786 -0.113380946
0002a0 43 3a dd bd 5d 39 9e bd 4e fb e9 3d c6 e8 32 3e
       -0.10802128 -0.07725785 0.11424886 0.17471609
0002b0 6a 0d eb 3d 41 8b 9e 3e 42 e3 b7 3d d4 2e 1a be
       0.11477168 0.30965617 0.08978893 -0.15056926
0002c0 b5 a0 2b 3e 57 2a 15 3e d2 94 a1 be f4 13 b7 bd
       0.16760524 0.14566933 -0.31558853 -0.08939353
0002d0 fa 36 10 3e 14 f9 29 3d 11 0c 4b bc a7 cf 26 3d
       0.14083472 0.041497305 -0.012393014 0.040725376
0002e0 1f 58 3b be 98 fb da bd e2 7e 82 be 8d 90 f8 3d
       -0.18295334 -0.10692519 -0.2548743 0.12136946
0002f0 9f ed 2e 3e 88 d4 06 3e 3b 61 78 3d b8 be 21 bd
       0.17082833 0.13167012 0.0606396 -0.039488524
000300 6e be f4 bd 98 f9 9e 3e bf d5 26 be 2c 8e 09 be
       -0.11950384 0.310498 -0.16292475 -0.1343314
000310 22 3c 38 bd b2 6e f8 bc ec ce a3 3e b0 17 cf 3d
       -0.044979222 -0.030326221 0.31993806 0.1011194
000320 fd 34 a1 3e 5f cd 56 3e 0b 32 c3 bd cb 97 5c be
       0.3148574 0.2097678 -0.09531029 -0.2154228
000330 cb 7f 21 be 60 44 05 be 30 29 e1 bd 4d 9a 8a 3e
       -0.15771405 -0.13014364 -0.10994184 0.27070847
000340 aa 83 9b be b3 5a 88 be c0 86 26 be 9d 13 69 3d
       -0.3037389 -0.26631698 -0.1626234 0.05690347
000350 0a 9b d0 3c 45 d9 fd 3d 88 47 a4 bd b4 b4 b2 bc
       0.025464553 0.123949565 -0.08021456 -0.021814682
000360 69 90 70 bd be 57 42 3e 17 eb 02 be f9 fd 67 3e
       -0.05873147 0.18978783 -0.12784992 0.22655477
000370 83 db 57 3e 58 30 19 3d 11 df f6 bd df 4c 89 3d
       0.21079831 0.03739962 -0.12054265 0.06704115
000380 cb 77 b8 bd 63 da 95 be 01 d2 3c 3d af 25 87 be
       -0.09007224 -0.29268178 0.046098713 -0.26395938
000390 33 23 40 be b8 7a 18 3e bc 39 64 3d b4 24 ac 3e
       -0.18763427 0.14890563 0.055719122 0.33621752
0003a0 1b 14 fe 3d 9f 0a 3b 3d 5b 7f 5c 3e 44 75 42 3e
       0.124061786 0.045664426 0.21532957 0.18990046
0003b0 c8 eb 2c be 48 60 50 3e 1c 6f 37 3d ae 8a 37 3e
       -0.16886818 0.20349228 0.044783697 0.17923996
0003c0 5f 40 e5 3d 86 6c 67 3e 42 ec 06 3e de 9b 6b 3e
       0.111939184 0.22599992 0.13176063 0.23008677
0003d0 07 70 21 be 72 54 15 3e 77 e1 87 3e 83 14 22 3e
       -0.15765391 0.14582995 0.26539204 0.15828137
0003e0 8e 6e 38 3e 43 56 7c bd 3e 42 90 3e 42 6c 28 3e
       0.18010923 -0.061605703 0.2817554 0.16447547
0003f0 bd 5e 07 3e 2b a7 af bd 50 7e 41 3d e3 3f 3b be
       0.13219734 -0.08576807 0.0472396 -0.1828609

linear1.bias f4 [256]
000000 69 08 89 3e a3 08 d2 3d f0 a4 6e bb ef 04 08 be
       0.2676423 0.102555536 -0.0036414228 -0.13283132
000010 33 2b a0 be 09 ad 2e 3d f4 a9 c0 3e 89 e6 d8 bd
       -0.31282958 0.042645488 0.37629664 -0.10590846
000020 46 ba a0 3c 51 74 26 be b7 20 4b bd 26 28 9f 3d
       0.019620072 -0.16255309 -0.049591746 0.077713296
000030 c0 bb 92 be eb a8 11 be b9 23 85 be 05 b2 6b 3e
       -0.28658867 -0.14224593 -0.26003817 0.23017128
000040 6e 38 0c 3e 1b e5 43 3d 20 ea 6f 3e 77 1f 34 be
       0.13693401 0.047825914 0.23429155 -0.17590128
000050 bd fe c3 3d 9f 5d 90 3e 03 1b 78 3e 2a fc 16 be
       0.09570072 0.28196427 0.24229054 -0.1474463
000060 24 a3 8b 3e 7e 81 09 be a8 29 94 bd e5 c3 94 3d
       0.27272904 -0.13428304 -0.07234508 0.072639264
000070 30 83 84 bd 4c c7 a0 3c 43 aa 94 3e 2a c0 2e be
       -0.064703345 0.019626282 0.2903615 -0.17065492
000080 2d 57 64 3e ba b5 92 3e 80 d3 8b be 7e cb ae 3e
       0.2229888 0.2865427 -0.273098 0.34139627
000090 01 a2 c3 3e 04 79 b0 3c a4 31 47 3e 05 2a 15 be
       0.38209537 0.02154208 0.1945253 -0.1456681
0000a0 88 ca 57 be 0f dd 97 be e0 93 7c bd 74 a2 2a 3e
       -0.21073353 -0.29660842 -0.061664462 0.16663533
0000b0 5f af ae 3e 9c 8a 64 bd 64 c5 a2 bd e9 8b e6 bd
       0.34118173 -0.05579625 -0.079478055 -0.112571545
0000c0 1e 1e 6a bd 3e 5a a7 3d e5 25 0d 3e 6d 0f 86 be
       -0.05715763 0.08171509 0.13783987 -0.26183644
0000d0 a3 f1 62 3e 52 33 68 be 37 4a 92 3e dc bb 4f be
       0.2216249 -0.22675827 0.28572246 -0.20286506
0000e0 92 4c 6f 3e ff 84 86 3e cd 15 82 3e 14 7c 96 be
       0.23369053 0.26273343 0.25407258 -0.2939154
0000f0 46 44 4d be b0 76 1b be 8c 2f cc 3e 73 ec 7d 3e
       -0.20045575 -0.15181994 0.39880025 0.2479723
000100 02 a4 37 3e f2 ee d7 bc b5 ed 50 3e 92 4c 2f be
       0.17933658 -0.026359055 0.20403178 -0.17119053
000110 05 1a 4f 3e 81 ff 9d 3e 94 77 58 be 8b 72 e9 3b
       0.2022477 0.30858997 -0.21139365 0.0071242503
000120 3c c3 49 3c db 2b 76 3e e0 bc 52 be d2 e6 8b 3e
       0.012314614 0.24040167 -0.20579863 0.2732454
000130 a3 30 57 3e 7a 12 44 be 41 a0 c1 3e 41 04 06 bd
       0.21014647 -0.19147673 0.37817577 -0.0327189
000140 14 74 93 be d0 8a a7 bd 3f 59 d6 bd d3 11 ac bd
       -0.28799498 -0.08180773 -0.10466241 -0.08401837
000150 0d 36 86 be 54 1a 02 be fc bb 0a be 81 77 95 be
       -0.26213112 -0.12705356 -0.13548273 -0.29192737
000160 12 46 ed bd 02 4d a8 3e 02 c1 68 3b 9e 9b 1f be
       -0.115856305 0.32871252 0.0035515432 -0.15586707
000170 99 37 e4 3c 81 bd 82 bc b5 71 eb bd 19 e8 84 3e
       0.027858542 -0.015959503 -0.11496297 0.25958326
000180 fe 99 9e bc a4 b1 00 be 23 28 4f 3e b7 92 36 be
       -0.019360539 -0.12567765 0.20230155 -0.17829405
000190 74 93 a3 3e 5d e4 96 be ff a1 60 be 20 b4 10 3e
       0.31948435 -0.29471102 -0.21936797 0.14131212
0001a0 aa e7 41 3e 4f d4 97 be fa 8b 2d 3e 09 80 37 3e
       0.18936029 -0.29654166 0.16947928 0.17919935
0001b0 80 71 4b bd 96 4d 91 3e c6 f7 95 bd c9 9e 05 be
       -0.04966879 0.28379506 -0.0732265 -0.13048853
0001c0 a9 7c 27 be 1f 4f 85 3e a1 23 ce 3d d4 7d 73 be
       -0.16356148 0.26036927 0.100653894 -0.23778468
0001d0 df 8b 49 be da 69 aa bd 87 ce 53 be 3f 0c 94 3e
       -0.19682263 -0.08320971 -0.20684253 0.28915593
0001e0 05 5d 39 be 89 8e 1d bd 83 a9 7c 3e 01 1b 4b be
       -0.1810189 -0.03846601 0.24674039 -0.1983452
0001f0 fa f9 70 be 87 2a b5 3e dc 49 22 3e 8d bc 28 bd
       -0.23532858 0.35384008 0.15848488 -0.04119544
000200 04 55 69 be b9 f9 8c be ef f2 4b 3e c3 2e f0 3d
       -0.22786337 -0.27534273 0.1991689 0.11727669
000210 3c e1 8b 3e 70 05 73 3e 0c 52 86 be 13 ce 16 3e
       0.27320278 0.23732543 -0.26234472 0.14727049
000220 12 44 86 be eb 81 09 bb 09 f2 51 3e 1e 23 78 bd
       -0.2622381 -0.0020981978 0.20502485 -0.060580365
000230 52 59 83 be 8c 96 29 3e 15 f2 81 3e 02 df 3c 3e
       -0.25654083 0.16561335 0.25380006 0.18444446
000240 3a 30 bf 3e 7c 3c 1f 3d cc bf aa bd f4 8d 79 3c
       0.3734148 0.03887604 -0.083373636 0.015231598
000250 40 6a d0 bd 53 75 97 3e 14 5b 6d 3e 79 13 80 3e
       -0.101765156 0.295817 0.23179275 0.25014856
000260 75 cb 1b 3e c9 43 36 bd c5 95 5e 3e bf ca 16 3d
       0.15214331 -0.04449824 0.2173682 0.036814447
000270 7a c0 23 be ad ae 6a b9 5a 7e 02 bb fd b5 fe bd
       -0.15991393 -0.00022381051 -0.0019911737 -0.12437055
000280 f8 9e b0 3e 96 59 65 3e 9b 43 20 3e 25 d4 20 be
       0.34496284 0.22397456 0.1565079 -0.15705927
000290 2a c2 9a 3e 59 b5 fb 3d 22 ee 81 3e 51 7f 97 be
       0.3022626 0.12290449 0.25376993 -0.29589322
0002a0 8a b0 90 bc f0 99 7e 3e ff 40 fe bd 33 aa 9f bc
       -0.017662305 0.2486341 -0.12414741 -0.019490337
0002b0 5d 53 c7 bd 41 27 91 bd 74 ac ac 3c 0c 40 8b 3e
       -0.09732697 -0.07087565 0.021078326 0.271973
0002c0 6c ac 38 3e 81 26 93 3c 95 3c ae bd 60 c6 40 3e
       0.18034524 0.017962696 -0.08507649 0.18825674
0002d0 82 98 72 bd 59 05 37 be 25 78 34 3e 4c e9 3b 3e
       -0.059227474 -0.17873134 0.17623957 0.18350714
0002e0 56 1f 4f be 10 9e 38 be bc 2b 55 be 1f 19 8d 3e
       -0.20226797 -0.18029046 -0.20817465 0.27558228
0002f0 69 6a 20 be d4 4c 8f be 77 e9 35 bd dc 9f 85 be
       -0.15665592 -0.27988303 -0.044412103 -0.26098526
000300 36 02 74 bd 58 9f 48 be 17 ae 76 3e ec 8f 0a be
       -0.05957242 -0.19592035 0.24089848 -0.13531464
000310 67 f7 85 bc 20 a8 7e be cd 4d bf 3d b5 c5 d8 3d
       -0.016353322 -0.24868822 0.09341011 0.105845846
000320 c4 e3 49 3d 9a 72 bb bc 8d e2 ac 3e 2d 06 8e be
       0.04928948 -0.022881795 0.33766595 -0.27739087
000330 05 06 96 3e e0 d2 88 be 05 c4 97 be 23 4e a4 3e
       0.29301468 -0.26723385 -0.2964174 0.32090864
000340 d8 20 a4 3e 24 de 57 3e 0e 82 3c 3e 31 04 83 bd
       0.32056308 0.21080834 0.18408987 -0.06397284
000350 81 90 95 bc 28 64 9e be 59 e3 0c 3e f3 aa 62 be
       -0.018257381 -0.30935788 0.13758601 -0.22135524
000360 cd 73 87 3e 6e 5f 5d 3e 62 ad 54 3e 13 b4 36 3e
       0.26455536 0.21618435 0.20769265 0.1784213
000370 9c 35 dd 3d e0 de 88 3e 89 ea 34 be 98 53 3e bd
       0.10801241 0.2673254 -0.17667593 -0.04646644
000380 4a 5b 70 3e 56 95 53 3e 49 d3 8b be f7 0f 0a be
       0.23472324 0.20662436 -0.27309635 -0.13482653
000390 90 ed 96 3e e1 1f 34 3d 50 1e e8 bc cf 54 e6 bd
       0.2947812 0.043975715 -0.028334767 -0.11246645
0003a0 44 ed 52 be 25 9e e6 bd 94 41 2e be ae 8f cd bc
       -0.20598322 -0.112606324 -0.17017204 -0.025092926
0003b0 96 8c bd 3d 6f fd a6 be 66 d9 a9 bb 5f 92 4f be
       0.0925533 -0.3261523 -0.0051833866 -0.2027068
0003c0 0a 88 5c be 02 02 11 3e 5f 18 36 3e 45 0a 68 3e
       -0.2153627 0.14160922 0.17782734 0.22660168
0003d0 65 6d c0 3e e0 c5 4e 3e 0f 78 39 3e 13 8c 96 bd
       0.3758346 0.20192671 0.18112205 -0.07350936
0003e0 3a 42 73 be e7 52 a2 3e 0f 4e 7d 3e 99 17 5b 3d
       -0.23755732 0.31703874 0.24736808 0.0534893
0003f0 af 24 0a 3e 0b c1 47 3e c4 e6 06 3e 48 c0 92 be
       0.13490556 0.19507234 0.13173968 -0.28662324

linear2.weight f4 [3, 256]
000000 5d e1 ec bd 3a e2 96 bd 02 eb 3e bd 85 40 c2 bd
       -0.11566422 -0.07367368 -0.04661084 -0.094849624
000010 9a ec 52 3d ff 7b d2 bc 02 3a c5 bd 5c 67 fe bb
       0.051495172 -0.025693892 -0.09630205 -0.0077637862
000020 fc 14 e6 bd 4a fe 6f bd 80 54 34 bd 40 e8 58 bd
       -0.11234471 -0.05859212 -0.044025898 -0.052955866
000030 01 b9 df 3b e7 2a 2c bd 79 9e 71 bc f6 b7 b7 bd
       0.006827474 -0.042033102 -0.0147472555 -0.08970635
000040 59 5d b2 3c 61 81 0f be c5 37 be bd 79 79 e4 3b
       0.021773027 -0.14014198 -0.09287981 0.0069724885
000050 df 65 ce bd 17 9d f8 bd 6e 7d 46 bc ee aa 69 bd
       -0.10078024 -0.121393375 -0.012114866 -0.057047777
000060 07 22 a8 bd 6a 7c d0 bd e8 f7 fd 3b d0 ff 60 bd
       -0.08209615 -0.1017998 0.0077505 -0.05493146
000070 38 93 51 bd 18 88 ea bd eb 85 fb bd 8f 8e b9 bc
       -0.05116579 -0.11451739 -0.12281402 -0.022650985
000080 67 1c a8 bc d2 3b 34 bc 80 74 51 3d c0 89 8b bd
       -0.020521356 -0.01100059 0.051136494 -0.06813383
000090 f7 75 71 bd f8 cb ea bd fc 2b 29 bd 3e 4f bc 3c
       -0.05895039 -0.11464685 -0.041301712 0.022987004
0000a0 8a 5d 1e bd 57 d4 29 3c d4 f3 95 3b 21 33 86 bd
       -0.038663425 0.010365567 0.0045761857 -0.06552721
0000b0 ec d3 37 3d 06 ff 46 3d 15 1b 12 3c bf 36 22 be
       0.04487984 0.048583053 0.00891759 -0.15841196
0000c0 c1 63 20 bd 25 7d 84 3c a7 1e 7d 3b 32 b2 8d 3c
       -0.039157633 0.016172955 0.0038623007 0.017296884
0000d0 02 d7 f1 bd 68 de 10 3a de 82 0b 3d b7 36 38 bd
       -0.118085876 0.0005526305 0.03406035 -0.044974055
0000e0 fa d4 f2 bd a2 e3 4f bd 18 e6 b7 bd a8 7b 0e 3d
       -0.11857028 -0.050754197 -0.08979434 0.034785897
0000f0 68 9a 6c 3d ac 5d 7f bd 1e 36 e6 bd 63 3d a2 bd
       0.05776444 -0.06234519 -0.11240791 -0.07921865
000100 f3 6b 87 3c 38 dc 38 bc b2 5e 44 3d ba ad 50 bd
       0.016530966 -0.011282973 0.04794187 -0.05094693
000110 04 c5 39 3b 3b 9a e8 bd d0 fc 5a bd e7 cb 1d be
       0.002834619 -0.11357542 -0.053463757 -0.15409814
000120 22 a0 de bd e6 08 3b bd 19 43 52 3d 34 bc be bd
       -0.10870387 -0.045662783 0.05133352 -0.09313241
000130 2c d4 fa bc cb d3 87 bd f8 c7 95 bd aa 13 e3 3c
       -0.03061875 -0.06632193 -0.07313532 0.027719337
000140 98 b8 82 bd 23 bd 38 bd 78 35 33 3d 23 60 0d bd
       -0.06382865 -0.04510225 0.043752164 -0.03451551
000150 be 05 ea bc 13 00 e2 bc 05 23 54 bd bf 17 70 3d
       -0.028567191 -0.027587926 -0.05179121 0.058616396
000160 a0 3d 97 3c 66 92 a4 bd 57 87 f0 bb 7e a8 6e 3d
       0.018462002 -0.08035736 -0.0073403525 0.058266155
000170 44 43 01 3d de 92 41 bd c7 59 23 3d 29 b6 58 bc
       0.03155829 -0.047259204 0.03988054 -0.013227024
000180 c2 b1 d4 bd 79 6e 20 3b 06 12 87 bd 37 44 c4 bc
       -0.10385467 0.002447991 -0.065952346 -0.023958309
000190 2d f6 cd bd bd 47 8b 3d 4f 0d af 3c 1f a7 f0 3d
       -0.1005672 0.06800792 0.02136865 0.11750626
0001a0 d8 a8 59 bd 65 ad f4 3c ec f3 3c bb a7 22 16 3d
       -0.053139538 0.029867837 -0.0028831912 0.03665414
0001b0 a1 ab a1 3b 03 03 db bd 3e 22 01 3d 57 8d 22 bc
       0.00493379 -0.10693934 0.031526797 -0.009921393
0001c0 78 f1 8c bd a1 ba 94 bd 59 10 83 bd c7 38 07 3c
       -0.06881994 -0.07262159 -0.063996024 0.008253283
0001d0 3a 63 b0 bd cb 4a 6f 3c 4e 58 47 3c 53 27 fb bd
       -0.08612676 0.014605234 0.01216705 -0.1226336
0001e0 84 1b a0 3b 89 a6 74 3c ba ef 2c 3d f1 09 93 bc
       0.0048860926 0.014932283 0.04222081 -0.017949076
0001f0 25 f1 0e bd 72 6f 96 bd 81 d2 5a 3d a0 7b f3 bc
       -0.034897942 -0.07345475 0.05342341 -0.029722035
000200 be 51 64 3b 76 9b 0b 3d 05 76 81 bd 36 da 17 bd
       0.0034838761 0.034083806 -0.063213386 -0.037073337
000210 27 39 0b be 1b cc 24 bd bd f5 5d bd 20 61 6f 3c
       -0.1359602 -0.040233713 -0.054189432 0.014610559
000220 93 25 9f bd 56 5d 69 bd 64 26 b7 bb 90 cf 62 bd
       -0.077708386 -0.056973778 -0.0055892933 -0.05537373
000230 54 12 1b bd 43 b1 b8 bd 0b c2 8f bd e6 b4 24 3c
       -0.037859276 -0.09018185 -0.07019433 0.010052895
000240 b0 42 cb bd b8 55 15 bd a9 94 ad bd d5 40 e0 3b
       -0.09924829 -0.0364587 -0.0847562 0.006843666
000250 20 60 82 bd 07 ab 01 be 2c 91 e0 3b d3 c3 90 bd
       -0.06365991 -0.12662898 0.0068532433 -0.070686005
000260 6c 82 ef bc 4c b9 48 bd 91 27 9a bc 17 5d d9 3c
       -0.029236995 -0.049004838 -0.018817695 0.026533647
000270 f6 3b f1 3c 44 eb 88 3d fe 19 bf 3c 29 0c 96 3c
       0.029447537 0.06685498 0.023327824 0.018316345
000280 73 de da bd 73 d7 ee bc 30 4a 9e bc e2 66 fb bd
       -0.1068696 -0.029155469 -0.019322485 -0.12275483
000290 84 6b 4c bd f1 60 45 bd bd ad 85 bd cf 64 b6 bb
       -0.049907222 -0.048188154 -0.065272786 -0.0055662165
0002a0 43 97 e9 bd a4 ff e1 bd 4d 40 74 bd 59 a4 a4 bd
       -0.11405804 -0.11035088 -0.059631635 -0.08039159
0002b0 26 1b fc bd 82 9b 84 bd 1a 51 f9 bb df 5b da bd
       -0.12309866 -0.06474973 -0.007608545 -0.10662054
0002c0 a4 35 ef bd d1 f3 a7 bc bc e0 b7 3c 60 89 06 bd
       -0.11680153 -0.020502003 0.022446029 -0.032845855
0002d0 ac eb 52 bd 6b ad eb 3b 78 5a d5 bd 9a d6 23 bc
       -0.051494285 0.007192304 -0.10417646 -0.0099998955
0002e0 78 7a d0 3a f4 0a 3b 3c ef 0f ad bd ce 52 20 bd
       0.0015905639 0.011416186 -0.08450305 -0.03914147
0002f0 5c 99 82 bd 42 39 3d bd 2c 4c 1e bd 75 60 8f 3c
       -0.06376907 -0.046197183 -0.038646862 0.017502049
000300 62 b5 1c bc bb d9 9f 3c 3d ac 78 3c 26 8d be bc
       -0.009564729 0.019513002 0.015177784 -0.023260664
000310 e0 f5 87 bd c6 4f 5a bd 37 b7 ed 3c 50 64 bf 3b
       -0.06638694 -0.053298734 0.029018028 0.0058408156
000320 15 0b 82 bc b8 d8 ac bd da a9 f2 bd f2 90 b0 bc
       -0.015874425 -0.08439773 -0.11848803 -0.02155349
000330 de a6 53 bd 31 76 41 bd 76 ab ce 3c cc d6 aa bd
       -0.05167281 -0.047231857 0.025228243 -0.083417505
000340 9f ab ed bd 95 79 3a bd a8 1d ce 3c 58 45 9c bb
       -0.11605 -0.045526106 0.025160626 -0.0047690086
000350 bf d4 0c be 65 45 1d 3d 17 15 78 bc 6f 77 c4 3d
       -0.13753031 0.038396258 -0.015141747 0.09593093
000360 db 23 a9 bd b7 b8 e6 3c 8d 16 8d 3d bb 50 25 bd
       -0.08258792 0.02816425 0.06889067 -0.040360194
000370 a2 17 82 bd 57 59 a6 bd 0d 74 de bc bd d8 fe bd
       -0.06352164 -0.08122509 -0.027154947 -0.12443683
000380 0c c4 d6 bd 27 60 b7 bd 4f 90 84 bd d3 9c 15 bd
       -0.10486612 -0.089538865 -0.06472837 -0.036526512
000390 25 0d bb bd ae e0 e1 bd 36 0a 76 bd a3 28 e7 bc
       -0.091333665 -0.110291824 -0.06006833 -0.02821762
0003a0 b3 3e 80 bd a5 66 21 bd 6a e5 6a bd 2c 03 6b bd
       -0.06261959 -0.03940453 -0.057347693 -0.05737607
0003b0 4b 36 66 bc 99 c3 81 bc b8 d7 91 bd 50 bb 40 bd
       -0.01405103 -0.015840339 -0.07121223 -0.047053635
0003c0 a3 6e a5 bd 2a d1 3e 3c 16 3e 92 3a 97 8b fe bc
       -0.08077743 0.011646548 0.0011157419 -0.031072421
0003d0 35 40 fe bd fe c6 72 bd e8 b9 00 be 46 d4 fb b9
       -0.1241459 -0.059271805 -0.12570918 -0.00048032607
0003e0 70 db 69 bc 09 3e 15 bd 63 57 c7 bd 1f bd b3 bc
       -0.014273509 -0.036436114 -0.097334646 -0.021940766
0003f0 5c f5 6a bc f5 1d 00 be 53 26 10 bc 6b 79 13 3d
       -0.014340725 -0.12511428 -0.0087982 0.036004465

linear2.bias f4 [3]
000000 4c 92 1f bd cd e9 05 bd 15 f6 ea bc
       -0.03895788 -0.032693673 -0.028681794
